web/public/model.tflite (tflite, 35240 bytes, 6 tensors)

sequential_3/dense_Dense7/MatMul/ReadVariableOp/transpose f4 [50, 150]
-0.010022428 0.0007343155 -0.009265389 -0.09143187 0.07231005 -0.06253524 0.22815166 -0.15786418
-0.21936464 0.09859966 -0.030147653 -0.08374605 0.14557801 -0.024337988 -0.0046465704 -0.13420321
-0.04725869 -0.13508521 -0.004772517 0.03350407 0.16686 -0.028022826 0.017561948 0.08833372
0.11923587 -0.09395564 -0.042862818 -0.12020751 -0.009960403 0.1243787 -0.123535946 0.015788438
-0.082329094 -0.06820711 0.093566254 -0.061478343 -0.005343025 0.122520484 0.108645074 0.15046191
-0.06258203 0.018144585 -0.07201383 -0.09812187 -0.07647835 -0.0062751854 0.007502945 -0.0058808965
-0.079111904 -0.053837795 0.015286556 0.0025268854 0.052707218 -0.0173751 -0.03749343 -0.1165856
0.057119645 0.06632966 -0.029372247 0.12930167 -0.02011368 0.026291786 0.16243842 -0.030664157
0.03175617 -0.09581352 0.04086021 -0.13156877 -0.06040032 -0.13237989 -0.008101847 -0.05454139
-0.07916613 -0.043824833 -0.1404086 0.040480766 0.10584366 0.026495988 -0.16635737 0.20773283
0.005131341 -0.090866044 0.00592669 0.033194844 0.036243446 -0.07934405 -0.045952875 0.08169665
0.012748975 -0.08232442 0.13318075 0.069420286 0.110062204 0.019446855 0.0041950573 0.11999583
0.07116163 0.10112817 -0.07419809 -0.15709761 0.027548708 -0.16787392 -0.04570185 0.13509431
-0.059029453 -0.031076964 0.1345802 0.08506265 -0.037319522 0.041232053 0.0691428 0.029177291
0.0120381145 -0.095399626 0.04328331 0.04786289 -0.048214056 0.11322102 -0.015442459 -0.038901184
0.072336584 0.14672281 -0.16802266 0.032842364 -0.08341497 -0.1412281 -0.022232542 -0.119011015
-0.11118162 -0.040252805 0.03198574 -0.04851871 0.08997658 -0.09191019 -0.26450697 -0.084586404
-0.099496655 0.020738883 -0.109367006 -0.16304101 -0.101210564 0.080264784 -0.048168972 -0.089856535
0.109859705 -0.02362151 0.11287466 -0.0616023 -0.04241217 0.03158053 -0.2882189 0.13176554
-0.023221977 -0.085876144 -0.074126124 0.01748478 -0.074142344 -0.007446969 0.02459171 -0.17464605
0.21437594 -0.0104199415 -0.04029713 0.02016539 -0.09604148 -0.009438469 0.1841166 0.12837458
-0.10527811 -0.019351423 -0.04248746 -0.07376607 0.11584431 0.12528305 -0.01253256 -0.0442298
-0.08972317 -0.09186756 0.1393599 -0.1513965 -0.022887921 -0.026644733 0.056775387 -0.06721114
0.1441223 -0.12888922 -0.05340242 -0.074008636 0.012786967 -0.042781767 0.15224281 -0.122372024
-0.05465233 -0.018726874 -0.018848944 -0.007159497 -0.1488884 -0.09482449 0.14374916 -0.07162885
0.13819435 0.0479325 -0.09321185 0.13962477 0.10690904 -0.050671965 0.07831749 0.0053745364
-0.116455466 0.050597005 -0.06323224 -0.022880193 -0.09456115 -0.013284329 -0.022575313 0.09976873
0.15839668 0.07919436 0.041104488 0.03773223 0.0011962377 -0.06607377 0.16660593 -0.069421776
0.14404996 -0.06283933 0.031933457 -0.10646458 -0.04672607 0.11905958 0.05215611 -0.11620776
0.0073189633 -0.011677541 -0.05550485 -0.013069568 0.20564193 -0.00966967 0.13483435 0.03554479
0.09566871 -0.080610014 -0.0121120475 0.061596237 0.06325521 -0.03138705 -0.006860891 -0.046398874
0.036026802 -0.011916203 0.012715838 -0.124190696 -0.1417523 0.080953 0.21303876 0.033938106
00000000: 1c35 24bc 147f 403a dccd 17bc a240 bbbd
00000010: 4b17 943d 7a12 80bd 97a0 693e 26a7 21be
00000020: 20a1 60be 9eee c93d 36f8 f6bc 0d83 abbd
00000030: 6712 153e 7660 c7bc 4242 98bb 916c 09be
00000040: 5492 41bd c753 0abe c662 9cbb 903b 093d
00000050: 59dd 2a3e 2090 e5bc 13de 8f3c 4fe8 b43d
00000060: f031 f43d d16b c0bd ec90 2fbd 5b2f f6bd
00000070: f530 23bc 43ba fe3d 6a00 fdbd c156 813c
00000080: 289c a8bd 2bb0 8bbd aa9f bf3d b7d0 7bbd
00000090: 8b14 afbb 05ec fa3d 4f81 de3d b012 1a3e
000000a0: 022b 80bd f4a3 943c fd7b 93bd 1ef4 c8bd
000000b0: aea0 9cbd 12a0 cdbb 44db f53b 89b4 c0bb
000000c0: 6c05 a2bd 0585 5cbd 7774 7a3c 1a9a 253b
000000d0: 86e3 573d 3a56 8ebc b692 19bd 6ec4 eebd
000000e0: 4af6 693d d8d7 873d 119e f0bc a867 043e
000000f0: 72c5 a4bc df61 d73c 4256 263e 6633 fbbc
00000100: c212 023d e139 c4bd 095d 273d f7b9 06be
00000110: 5366 77bd 988e 07be 9cbd 04bc cb66 5fbd
00000120: da21 a2bd ab81 33bd 46c7 0fbe 29cf 253d
00000130: 90c4 d83d 1d0e d93c 9659 2abe eab7 543e
00000140: cf24 a83b fa17 babd ae34 c23b 51f7 073d
00000150: 0274 143d 227f a2bd 1539 3cbd 9350 a73d
00000160: 14e1 503c b599 a8bd 8960 083e 392c 8e3d
00000170: 4b68 e13d 034f 9f3c b176 893b 60c0 f53d
00000180: 30bd 913d 491c cf3d 2bf5 97bd 32de 20be
00000190: d4ad e13c 24e7 2bbe dd31 3bbd 2a56 0a3e
000001a0: dec8 71bd 1e95 febc 64cf 093e 5435 ae3d
000001b0: 5bdc 18bd f1e2 283d be9a 8d3d 3705 ef3c
000001c0: 833b 453c e160 c3bd d749 313d e10b 443d
000001d0: 1a7c 45bd 6ce0 e73d 5e02 7dbc d956 1fbd
000001e0: 3425 943d 813e 163e 220e 2cbe b785 063d
000001f0: 78d5 aabd 199e 10be 0521 b6bc 0cbc f3bd
00000200: 30b3 e3bd 20e0 24bd 7b03 033d 8ebb 46bd
00000210: a445 b83d 693b bcbd 756d 87be a33b adbd
00000220: e7c4 cbbd 97e4 a93c cffb dfbd 39f4 26be
00000230: 7c47 cfbd dd61 a43d d44c 45bd b406 b8bd
00000240: 20fe e03d e681 c1bc d42a e73d b152 7cbd
00000250: 62b8 2dbd 965a 013d 6d91 93be 8ced 063e
00000260: 043c bebc d5df afbd 70cf 97bd 3e3c 8f3c
00000270: f1d7 97bd b405 f4bb 8e74 c93c 6ad6 32be
00000280: 5e85 5b3e 67b8 2abc 9a0e 25bd e331 a53c
00000290: 65b1 c4bd cfa3 1abc 1089 3c3e a074 033e
000002a0: 0d9c d7bd e086 9ebc 5507 2ebd aa12 97bd
000002b0: c83f ed3d 334a 003e 5e55 4dbc 4f2a 35bd
000002c0: c8c0 b7bd 0f25 bcbd 5db4 0e3e af07 1bbe
000002d0: 737f bbbc 0e46 dabc 4f8d 683d ffa5 89bd
000002e0: cc94 133e 89fb 03be 7fbc 5abd d791 97bd
000002f0: 6d80 513c ef3b 2fbd 8ae5 1b3e 2f9e fabd
00000300: 1fdb 5fbd 1a69 99bc 1a69 9abc 379a eabb
00000310: 3376 18be 5833 c2bd fb32 133e 26b2 92bd
00000320: d282 0d3e de54 443d dbe5 bebd ccf9 0e3e
00000330: 20f3 da3d 688d 4fbd ec64 a03d e11c b03b
00000340: 3480 eebd ce3e 4f3d e87f 81bd 3e6f bbbc
00000350: 47a9 c1bd 84a6 59bc ddef b8bc 8c53 cc3d
00000360: bd32 223e a730 a23d 2e5d 283d 1c8d 1a3d
00000370: 14cb 9c3a af51 87bd bf9a 2a3e 012d 8ebd
00000380: d581 133e e8b1 80bd a8cc 023d 1a0a dabd
00000390: d663 3fbd 82d5 f33d a5a1 553d 56fe edbd
000003a0: ead3 ef3b 2853 3fbc 0e59 63bd be21 56bc
000003b0: cc93 523e 896d 1ebc 0412 0a3e 6a97 113d
000003c0: f5ed c33d dd16 a5bd 9c71 46bc 564c 7c3d
000003d0: f38b 813d b58f 00bd 53d1 e0bb bf0c 3ebd
000003e0: d790 133d 2e3c 43bc 1756 503c b157 febd
000003f0: 8427 11be b0ca a53d d526 5a3e af02 0b3d

sequential_3/dense_Dense7/MatMul_bias f4 [50]
-0.03541374 0.03690758 0.049777698 -0.013007267 0.037819013 0.084065385 -0.002230852 0.010627658
0.088900335 0.03367913 0.06987241 -0.031377148 0.026771512 0.08491885 0.0010492337 0.0082874
-0.020182474 0.23508655 0.04157595 0.070988394 0.026638124 0.014893249 0.053475477 0.22512479
-0.0002833055 0.023795316 0.055781655 0.06296249 -0.004952059 -0.009868186 0.06799352 0.09392029
0.10630877 0.15283881 0.05585499 0.08989522 -0.016486643 0.23570026 0.055964503 0.031238895
0.15489478 0.019705672 0.025089124 0.036169067 0.13867155 0.035725757 0.081189275 0.21148314
0.15848581 -0.011125011
00000000: ff0d 11bd 672c 173d b3e3 4b3d 6f1c 55bc
00000010: 1ce8 1a3d 792a ac3d 7c33 12bb a11f 2e3c
00000020: 6111 b63d 21f3 093d 4419 8f3d 5385 00bd
00000030: ee4f db3c efe9 ad3d 7186 893a e0c7 073c
00000040: b755 a5bc 87ba 703e 8b4b 2a3d 5d62 913d
00000050: 3238 da3c d002 743c 1a09 5b3d 1d87 663e
00000060: 9f88 94b9 65ee c23c 4e7b 643d 7af2 803d
00000070: e244 a2bb 2cae 21bc 3040 8b3d 4859 c03d
00000080: 6ab8 d93d c781 1c3e 34c8 643d fc1a b83d
00000090: ff0e 87bc 695b 713e 093b 653d b6e8 ff3c
000000a0: bd9c 1e3e ca6d a13c b587 cd3c 0426 143d
000000b0: eaff 0d3e 2c55 123d 9046 a63d 098f 583e
000000c0: 1b4a 223e ae45 36bc

sequential_3/dense_Dense8/MatMul/ReadVariableOp/transpose f4 [15, 50]
0.27172586 0.36112425 0.085413136 -0.1555491 0.11419353 0.23489049 0.14700244 -0.037504386
-0.06495023 0.05692381 -0.26635242 0.12553439 -0.19437048 0.046337243 -0.1589432 0.10504353
0.04018792 -0.20444383 -0.006501125 0.057233624 0.12008343 0.033837516 0.42678306 -0.27940983
0.30698442 -0.16276722 0.08378634 -0.06982215 -0.076085486 0.015478815 0.06905818 -0.0969658
0.030061107 -0.017071655 0.13484037 0.3291187 0.087815 0.21798916 -0.10600173 0.053635128
-0.14304563 -0.05261722 -0.067328 0.10568261 -0.074565135 0.35702756 -0.033205744 0.2101022
0.30729887 -0.013032626 0.025682144 -0.18155386 0.005666933 0.034758903 0.20969658 0.11378872
-0.14192848 -0.01632211 0.29039097 -0.029818056 0.005404098 0.015303209 0.09830064 -0.060898505
0.12403323 -0.35444143 -0.13196747 -0.084342875 0.20042346 0.28269485 0.04870247 0.077130206
0.22362162 -0.2502162 0.16369745 -0.34406656 0.1447281 0.13543415 0.05723472 0.29214144
0.15323624 0.25500578 -0.06828907 0.028236484 -0.04479685 0.03627857 0.121278554 0.24661942
0.09224996 0.34542146 -0.23818304 -0.32044116 0.38950446 -0.18727012 0.27003628 -0.099841885
0.3857264 0.26397285 0.17769022 -0.23381118 0.05636729 -0.30186912 -0.19772461 -0.09179871
-0.11177921 0.2423459 0.20877554 0.08843694 0.2407253 -0.28421068 -0.023427155 -0.03586098
-0.026836982 0.32328302 0.010663092 0.049705807 -0.22035298 0.36439666 -0.18078189 -0.15970068
0.28182006 -0.08929623 -0.092386365 0.15097348 -0.06820921 -0.08410225 -0.15141504 0.17544715
0.029771268 0.073479354 0.043462273 0.10398648 0.1886365 0.15854011 -0.304984 0.04587473
0.33967727 0.10225216 -0.18748406 0.1557052 0.15024628 -0.13442913 0.11749226 -0.1178345
0.29039964 0.2164046 0.12699635 0.42697856 -0.28837502 0.2939427 -0.059013154 0.25955462
-0.15520984 0.10945354 0.0952214 -0.12953125 0.045502245 0.24901368 0.19649082 -0.03357578
-0.3565175 -0.14545275 0.010858278 0.048602544 0.043114726 0.005392901 0.19257466 0.5153494
0.20939957 -0.20958138 -0.04074346 -0.08953766 0.055501815 0.1730651 0.08532583 0.07142298
-0.16313818 0.093124166 0.2627897 -0.20922264 0.07680993 0.15928836 0.41332972 0.22320448
0.16163604 0.19416317 -0.1081553 0.36294174 0.23816368 -0.15709184 0.19456244 -0.20652023
-0.0016117934 -0.068859816 0.30352086 0.119817846 -0.17505468 0.26498088 -0.325669 -0.3863329
-0.2440441 0.46466643 -0.11600588 -0.0101607535 0.122575514 0.29215834 -0.19595994 -0.13641468
0.073550425 0.116354905 0.10159112 -0.21007195 -0.33350742 -0.2162337 -0.08906819 -0.024525324
-0.03308145 -0.28036416 -0.036324166 -0.15752658 -0.10310022 0.09100248 0.102797136 0.48777112
0.007873131 -0.20968014 -0.033434067 0.1720609 -0.016401868 -0.10620269 -0.06174358 -0.08569812
-0.027863858 0.10451051 0.13933387 0.04869959 0.16791895 0.3705824 -0.054460187 0.044792753
-0.033391297 -0.007746602 0.003528592 -0.21772256 0.007722867 -0.16699164 0.09248373 0.33179706
0.26170346 0.05307571 0.06133922 0.31420135 -0.13199262 -0.09405024 0.057459086 0.015761279
00000000: a71f 8b3e 47e5 b83e 15ed ae3d 4348 1fbe
00000010: 4cde e93d 2287 703e cf87 163e 339e 19bd
00000020: a004 85bd f128 693d 585f 88be 168c 003e
00000030: 0e09 47be 1fcc 3d3d 02c2 22be 1021 d73d
00000040: 179c 243d b959 51be 6407 d5bb ce6d 6a3d
00000050: 4dee f53d 3599 0a3d 4f83 da3e ce0e 8fbe
00000060: 102d 9d3e 73ac 26be 2c98 ab3d eafe 8ebd
00000070: b5d2 9bbd db9a 7d3c 606e 8d3d 0196 c6bd
00000080: b642 f63c dbd9 8bbc 9813 0a3e 3f82 a83e
00000090: 5ad8 b33d 8d38 5f3e 6f17 d9bd 82b0 5b3d
000000a0: 8e7a 12be 2785 57bd 43e3 89bd 2070 d83d
000000b0: 9bb5 98bd 51cc b63e bf02 08bd 0825 573e
000000c0: 4756 9d3e cc86 55bc 5c63 d23c 41e9 39be
000000d0: aeb1 b93b 5a5f 0e3d b3ba 563e 0f0a e93d
000000e0: b355 11be f2b5 85bc 20ae 943e ff44 f4bc
000000f0: dc14 b13b 50ba 7a3c d951 c93d b670 79bd
00000100: 2205 fe3d 5979 b5be 7b22 07be f5bb acbd
00000110: cf3b 4d3e 61bd 903e 3e7c 473d 71f6 9d3d
00000120: 11fd 643e 561c 80be 4ea0 273e 7e29 b0be
00000130: 9a33 143e 40af 0a3e f46e 6a3d 9093 953e
00000140: f6e9 1c3e 1e90 823e 24db 8bbd 3350 e73c
00000150: e77c 37bd d698 143d e460 f83d cd89 7c3e
00000160: 8ced bc3d 15db b03e 41e6 73be dd10 a4be
00000170: 216d c73e bdc3 3fbe 3242 8a3e e779 ccbd
00000180: ee7d c53e 7327 873e 6df4 353e 336c 6fbe
00000190: 63e1 663d 978e 9abe 5278 4abe f600 bcbd
000001a0: 80ec e4bd 8629 783e 41c9 553e 6d1e b53d
000001b0: b180 763e 1084 91be 4eea bfbc f7e2 12bd
000001c0: 3bd9 dbbc 5a85 a53e 40b4 2e3c 5198 4b3d
000001d0: 36a4 61be 3392 ba3e e31e 39be 9388 23be
000001e0: b84a 903e f1e0 b6bd 1035 bdbd cb98 1a3e
000001f0: 45b1 8bbd cd3d acbd 8b0c 1bbe 6ba8 333e
00000200: e0e2 f33c 587c 963d 7f05 323d ddf6 d43d
00000210: ed29 413e 5758 223e dd26 9cbe 24e7 3b3d
00000220: 2eea ad3e 9569 d13d d2fb 3fbe 2f71 1f3e
00000230: 29da 193e caa7 09be c89f f03d 3753 f1bd
00000240: 43af 943e 2b99 5d3e 550b 023e ef9c da3e
00000250: e4a5 93be a87f 963e c7b7 71bd 58e4 843e
00000260: 54ef 1ebe 2d29 e03d 7003 c33d d7a3 04be
00000270: 9060 3a3d 71fd 7e3e e434 493e c286 09bd
00000280: 7689 b6be 91f1 14be ebe6 313c 7613 473d
00000290: 1199 303d efb6 b03b 4b32 453e f0ed 033f
000002a0: d76c 563e 809c 56be 9de2 26bd 855f b7bd
000002b0: df55 633d fa37 313e 4fbf ae3d 3646 923d
000002c0: b20d 27be e2b7 be3d 5f8c 863e 763e 56be
000002d0: 864e 9d3d 7d1c 233e f49f d33e b78f 643e
000002e0: eb83 253e b6d2 463e 8780 ddbd 80d3 b93e
000002f0: 2ee1 733e afdc 20be 603b 473e 0a7a 53be
00000300: d042 d3ba 6006 8dbd 1667 9b3e 0f63 f53d
00000310: 8941 33be 93ab 873e 16be a6be 6dcd c5be
00000320: b2e6 79be c2e8 ed3e 7e94 edbd 4a79 26bc
00000330: df08 fb3d c795 953e b9a9 48be 4ab0 0bbe
00000340: 9ba1 963d 7b4b ee3d 010f d03d 1a1d 57be
00000350: 7cc1 aabe 5e6c 5dbe 6269 b6bd 55e9 c8bc
00000360: 6a80 07bd e48b 8fbe a6c8 14bd a64e 21be
00000370: 3526 d3bd 825f ba3d 4e87 d23d 23bd f93e
00000380: 4efe 003c 64b6 56be 29f2 08bd bc30 303e
00000390: 365d 86bc cc80 d9bd d6e6 7cbd 7f82 afbd
000003a0: bf42 e4bc 9b09 d63d 8aad 0e3e 3979 473d
000003b0: f2f2 2b3e fabc bd3e a511 5fbd 9b78 373d
000003c0: 50c5 08bd 35d7 fdbb f33f 673b aaf2 5ebe
000003d0: 1b10 fd3b dbff 2abe 1c68 bd3d 4ee1 a93e
000003e0: fffd 853e ea65 593d d53e 7b3d 00df a03e
000003f0: 1329 07be 6a9d c0bd 385a 6b3d cc1d 813c

sequential_3/dense_Dense8/MatMul_bias f4 [15]
-0.08336615 0.07350493 0.11777684 0.06709716 0.25098324 -0.032544505 0.2851999 0.052998375
0.07486195 -0.035955146 0.08681353 0.067906834 -0.02591933 0.03158509 0.24016596
00000000: dfbb aabd c189 963d fc34 f13d 3c6a 893d
00000010: e080 803e 634d 05bd b905 923e d314 593d
00000020: 3951 993d b445 13bd 4bcb b13d bd12 8b3d
00000030: c654 d4bc 5e5f 013d 11ee 753e

sequential_3/dense_Dense9/MatMul/ReadVariableOp/transpose f4 [5, 15]
-0.5192537 -0.21454771 -0.5757704 -0.76237875 0.33569002 -0.25783208 0.19797184 -0.11265699
0.008888058 -0.18023992 -0.50929445 0.018608272 -0.46968395 0.17876846 0.42880097 -0.425328
-0.036532905 0.22977744 0.042608064 -0.118987314 0.05159425 -0.754399 0.17679897 0.04613042
-0.2749943 -0.3659657 0.2208172 -0.6878537 0.5599547 -0.3746762 -0.6997152 -0.68469125
0.015195606 0.63385713 -0.09895073 -0.19168687 -0.13316667 -0.1962587 -0.32923287 0.32502058
0.32224494 -0.39000845 -0.044120595 -0.1701949 -0.17848341 -0.060681436 -0.42147058 0.057309307
-0.65878046 -0.86086607 -0.1354137 0.14915007 0.19578382 0.26409754 0.48194903 0.5379314
0.4868372 0.62233245 0.2996281 0.18621579 0.41231298 0.020263834 -0.45196772 -0.3712259
0.34971073 0.41059783 -0.7526108 -0.5873296 0.09260748 -0.23377424 0.06732403 -0.503035
-0.0949637 -0.092484035 -0.28060064
00000000: cfed 04bf 65b2 5bbe b065 13bf 412b 43bf
00000010: 90df ab3e 9102 84be 21b9 4a3e b5b8 e6bd
00000020: 389f 113c d090 38be 1f61 02bf 6070 983c
00000030: 6a7a f0be 140f 373e cd8b db3e 97c4 d9be
00000040: 87a3 15bd c74a 6b3e cb85 2e3d 9faf f3bd
00000050: 7e54 533d 4b20 41bf ca0a 353e 40f3 3c3d
00000060: 0ecc 8cbe db5f bbbe e71d 623e 2e17 30bf
00000070: 3159 0f3f 8fd5 bfbe 8920 33bf ed47 2fbf
00000080: fef6 783c 7644 223f aea6 cabd 9049 44be
00000090: d85c 08be 0af8 48be 3691 a8be 1969 a63e
000000a0: 4afd a43e 30af c7be ccb7 34bd 9247 2ebe
000000b0: 5bc4 36be 198d 78bd feca d7be 2abd 6a3d
000000c0: d6a5 28bf b861 5cbf e4a9 0abe ccba 183e
000000d0: 8e7b 483e cb37 873e 06c2 f63e dfb5 093f
000000e0: ba42 f93e 2e51 1f3f db68 993e 5aaf 3e3e
000000f0: b01a d33e 5700 a63c 5068 e7be 5211 bebe
00000100: 490d b33e e139 d23e 1aab 40bf 3c5b 16bf
00000110: fea8 bd3d 8462 6fbe 2ee1 893d e7c6 00bf
00000120: 547c c2bd 4568 bdbd e3aa 8fbe

sequential_3/dense_Dense9/MatMul_bias f4 [5]
0.23444074 -0.05679616 -0.08478661 -0.23219745 -0.25925905
00000000: 3c11 703e 17a3 68bd 9aa4 adbd 2bc5 6dbe
00000010: 9abd 84be
